…
[2024-12-02 14:06:44,845 INFO] Get special vocabs from Transforms: {'src': [], 'tgt': []}.
[2024-12-02 14:06:44,846 INFO] The first 10 tokens of the vocabs are:['<unk>', '<blank>', '<s>', '</s>', '▁;', '.', '▁local', '▁i', '32.', 'get']
[2024-12-02 14:06:44,846 INFO] The decoder start token is: <s>
[2024-12-02 14:06:44,846 INFO] Building model...
[2024-12-02 14:06:45,382 INFO] Switching model to half() for FusedAdam legacy
[2024-12-02 14:06:45,382 INFO] Non quantized layer compute is fp16
[2024-12-02 14:06:45,525 INFO] NMTModel(
  (encoder): TransformerEncoder(
    (embeddings): Embeddings(
      (make_embedding): Sequential(
        (emb_luts): Elementwise(
          (0): Embedding(496, 1024, padding_idx=1)
        )
        (pe): PositionalEncoding()
      )
      (dropout): Dropout(p=0.1, inplace=False)
    )
    (transformer): ModuleList(
      (0-5): 6 x TransformerEncoderLayer(
        (self_attn): MultiHeadedAttention(
          (linear_keys): Linear(in_features=1024, out_features=1024, bias=False)
          (linear_values): Linear(in_features=1024, out_features=1024, bias=False)
          (linear_query): Linear(in_features=1024, out_features=1024, bias=False)
          (softmax): Softmax(dim=-1)
          (dropout): Dropout(p=0.1, inplace=False)
          (final_linear): Linear(in_features=1024, out_features=1024, bias=False)
        )
        (feed_forward): PositionwiseFeedForward(
          (w_1): Linear(in_features=1024, out_features=4096, bias=False)
          (w_2): Linear(in_features=4096, out_features=1024, bias=False)
          (layer_norm): LayerNorm((1024,), eps=1e-06, elementwise_affine=True)
          (dropout_1): Dropout(p=0.1, inplace=False)
          (dropout_2): Dropout(p=0.1, inplace=False)
        )
        (layer_norm): LayerNorm((1024,), eps=1e-06, elementwise_affine=True)
        (dropout): Dropout(p=0.1, inplace=False)
      )
    )
    (layer_norm): LayerNorm((1024,), eps=1e-06, elementwise_affine=True)
  )
  (decoder): TransformerDecoder(
    (embeddings): Embeddings(
      (make_embedding): Sequential(
        (emb_luts): Elementwise(
          (0): Embedding(496, 1024, padding_idx=1)
        )
        (pe): PositionalEncoding()
      )
      (dropout): Dropout(p=0.1, inplace=False)
    )
    (layer_norm): LayerNorm((1024,), eps=1e-06, elementwise_affine=True)
    (transformer_layers): ModuleList(
      (0-5): 6 x TransformerDecoderLayer(
        (self_attn): MultiHeadedAttention(
          (linear_keys): Linear(in_features=1024, out_features=1024, bias=False)
          (linear_values): Linear(in_features=1024, out_features=1024, bias=False)
          (linear_query): Linear(in_features=1024, out_features=1024, bias=False)
          (softmax): Softmax(dim=-1)
          (dropout): Dropout(p=0.1, inplace=False)
          (final_linear): Linear(in_features=1024, out_features=1024, bias=False)
        )
        (feed_forward): PositionwiseFeedForward(
          (w_1): Linear(in_features=1024, out_features=4096, bias=False)
          (w_2): Linear(in_features=4096, out_features=1024, bias=False)
          (layer_norm): LayerNorm((1024,), eps=1e-06, elementwise_affine=True)
          (dropout_1): Dropout(p=0.1, inplace=False)
          (dropout_2): Dropout(p=0.1, inplace=False)
        )
        (layer_norm_1): LayerNorm((1024,), eps=1e-06, elementwise_affine=True)
        (dropout): Dropout(p=0.1, inplace=False)
        (context_attn): MultiHeadedAttention(
          (linear_keys): Linear(in_features=1024, out_features=1024, bias=False)
          (linear_values): Linear(in_features=1024, out_features=1024, bias=False)
          (linear_query): Linear(in_features=1024, out_features=1024, bias=False)
          (softmax): Softmax(dim=-1)
          (dropout): Dropout(p=0.1, inplace=False)
          (final_linear): Linear(in_features=1024, out_features=1024, bias=False)
        )
        (layer_norm_2): LayerNorm((1024,), eps=1e-06, elementwise_affine=True)
      )
    )
  )
  (generator): Linear(in_features=1024, out_features=496, bias=True)
)
[2024-12-02 14:06:45,527 INFO] encoder: 76032000
[2024-12-02 14:06:45,527 INFO] decoder: 100702704
[2024-12-02 14:06:45,527 INFO] * number of parameters: 176734704
[2024-12-02 14:06:45,527 INFO] Trainable parameters = {'torch.float32': 0, 'torch.float16': 176734704, 'torch.uint8': 0, 'torch.int8': 0}
[2024-12-02 14:06:45,527 INFO] Non trainable parameters = {'torch.float32': 0, 'torch.float16': 0, 'torch.uint8': 0, 'torch.int8': 0}
…
